pdl/python/autoencoder_dc.pth (torch_old, 24757 bytes, 9 tensors)

encoder.0.weight f4 [16, 1, 3, 3]
0	0xbc167235	-0.0091825025
1	0xbd23710b	-0.039902728
2	0xbe81e435	-0.2536942
3	0xbdcfb369	-0.10141642
4	0xbe347feb	-0.17626922
5	0xbe75fadf	-0.24021481
6	0xbe909346	-0.2823736
7	0xbdd03fe0	-0.10168433
8	0x3f3ae412	0.7300426
9	0x3d6c7736	0.057730876
10	0x3d10a2d9	0.035311554
11	0x3d6fd356	0.058551155
12	0xbd34aa6a	-0.044107832
13	0x3c399b7e	0.011328576
14	0xbe05efa3	-0.13079695
15	0xbd5bf9c8	-0.053705007
16	0xbd1de508	-0.0385485
17	0xbdeff242	-0.11716129
18	0x3e020749	0.12698092
19	0x3e270f11	0.16314341
20	0x3f0b1c85	0.5434039
21	0xbedf4cb0	-0.43613195
22	0xbc6514f9	-0.013982051
23	0xbe30530f	-0.17219184
24	0xbf028bd4	-0.5099461
25	0xbe2b24df	-0.16713284
26	0xbeb8ccfa	-0.36093885
27	0x3e2b8224	0.16748863
28	0xbea122b7	-0.31471798
29	0xbd992e9e	-0.07479595
30	0x3eb6557c	0.35612094
31	0xbe2decf9	-0.16984929
32	0x3db974b3	0.09055462
33	0x3ec6030b	0.38674197
34	0xbed30994	-0.41218245
35	0xbca4dcba	-0.020124782
36	0x3f4a8c93	0.7912075
37	0xbe24979c	-0.1607346
38	0xbec91166	-0.39271086
39	0xbe8886fd	-0.26665488
40	0xbe00ff19	-0.12597312
41	0xbe094b0e	-0.13407537
42	0xbeafba09	-0.3432162
43	0xbe3165e5	-0.17324026
44	0xbdb8cee8	-0.09023839
45	0xbed4310f	-0.4144368
46	0xbd8f2b1d	-0.06990645
47	0xbec18d2f	-0.37803027
48	0xbd98e70e	-0.07465945
49	0x3e70f574	0.23531133
50	0xbdf4c530	-0.11951673
51	0xbf09d1a5	-0.5383552
52	0xbe3991dc	-0.18122047
53	0xbf6ae4a3	-0.9175512
54	0xbe4855bb	-0.19563954
55	0xbf0b2b67	-0.543631
56	0x3f04273f	0.51622385
57	0x3db3b79f	0.08775257
58	0xbe554c25	-0.20829828
59	0x3e66152a	0.22469011
60	0xbda25102	-0.07925607
61	0xbef1b571	-0.4720874
62	0x3e50e0a8	0.203982
63	0x3e951ca5	0.29123417
64	0x3ed4448a	0.4145854
65	0x3eaed94d	0.34150162
66	0x3e155a7d	0.145853
67	0xbd8a1f36	-0.06744234
68	0xbe8d43c8	-0.27590775
69	0x3d0fbd8c	0.035092875
70	0xbe4f2ede	-0.20232722
71	0xbda18706	-0.07887082
72	0xbdb732ca	-0.08945234
73	0xbd6ddadd	-0.058070052
74	0xbeb9ff72	-0.36327702
75	0x3da2d5f3	0.07950964
76	0x3d4e6179	0.050385926
77	0xbd790a06	-0.060800575
78	0xbe06fc64	-0.13182217
79	0xbd900715	-0.07032601
80	0xbdc4b88f	-0.09605514
81	0xbe9c0d5a	-0.30478936
82	0x3eb26f94	0.34850752
83	0x3e23bb89	0.15989508
84	0xbe61d4cb	-0.2205383
85	0x3e8e7a4c	0.2782768
86	0xbdd36f64	-0.103239805
87	0xbd67c566	-0.05658474
88	0x3e8e970f	0.27849624
89	0xbdfbcab0	-0.12294519
90	0x3e50438d	0.20338269
91	0x3e739f1d	0.23791166
92	0xbdea2b93	-0.114340924
93	0x3d484378	0.04889247
94	0x3e0e0064	0.13867337
95	0x3e30f475	0.17280753
96	0xbe80f2bd	-0.25185195
97	0xbd3a9c06	-0.04555895
98	0x3e967650	0.2938714
99	0xbd612d77	-0.054975
100	0x3dc71425	0.09720639
101	0xbd6fe2d0	-0.058565915
102	0xbe185f49	-0.14880098
103	0xbddc3697	-0.107526
104	0xbd37906c	-0.044815466
105	0x3edd068d	0.4316906
106	0x3e4f5370	0.20246673
107	0x3eb4a9ae	0.35285705
108	0x3e40a60e	0.18813345
109	0xbdfe9332	-0.12430419
110	0xbd8603d2	-0.065436974
111	0x3eb122e4	0.34596932
112	0x3e315801	0.17318727
113	0x3da08633	0.078380965
114	0x3e348a79	0.17630948
115	0x3e50da13	0.20395689
116	0xbe2d048f	-0.1689627
117	0xbf4b9748	-0.7952771
118	0x3d1e0616	0.038580023
119	0xbdbfa6f7	-0.09358018
120	0xbe6e2d4f	-0.23259471
121	0xbd01ad52	-0.03165943
122	0x3d944578	0.072398126
123	0x3e2b98ff	0.16757582
124	0xbe08a28c	-0.13343257
125	0xbe5a94ef	-0.21345876
126	0xbdc3ab42	-0.09554149
127	0xbde2e9af	-0.11079728
128	0xbd8e7879	-0.06956572
129	0xbdc00e58	-0.09377736
130	0xbdbcb0c8	-0.09213406
131	0xbe8e23e7	-0.27761766
132	0x3ec5e260	0.38649273
133	0x3e1d9b5c	0.15391296
134	0x3dfb16d1	0.12260211
135	0xbcf17fec	-0.029479943
136	0xbf0659f0	-0.52480984
137	0x3e9c3b56	0.3051402
138	0x3e0a1c25	0.13487299
139	0xbde3f737	-0.11131137
140	0x3f296854	0.6617482
141	0xbd6eabcd	-0.05826931
142	0xbdd0fd82	-0.10204603
143	0x3dcb53c4	0.099280864

encoder.0.bias f4 [16]
0	0x3f258408	0.6465459
1	0x4029b79f	2.6518323
2	0xbf2edaaf	-0.68302435
3	0x3fa1db28	1.2645006
4	0xbf5a9872	-0.85388863
5	0xbe0e61fe	-0.13904569
6	0x3f94300b	1.1577162
7	0x3f20ae32	0.627658
8	0x3fb3c9ae	1.4045923
9	0x3fbea15f	1.4892997
10	0x3f742213	0.95364493
11	0x3f312582	0.6919786
12	0x3fb27997	1.3943356
13	0x3f9b2509	1.2120677
14	0x3fae1ae4	1.3601956
15	0x3f9521ef	1.1650981

encoder.3.weight f4 [8, 16, 3, 3]
0	0xbf57accb	-0.84248036
1	0x3e476da7	0.19475423
2	0xbe07760e	-0.13228628
3	0xbd42fdc9	-0.04760531
4	0x3e76bd92	0.24095753
5	0x3d5435f2	0.05180926
6	0xbe966892	-0.29376656
7	0xbd14e612	-0.036352225
8	0xbe196a6b	-0.14982001
9	0xbeb69a28	-0.35664487
10	0xbecb7387	-0.39736578
11	0xbd6203ec	-0.05517952
12	0xbdfd032d	-0.12354121
13	0x3e94df8c	0.29076803
14	0xbdfbb986	-0.12291245
15	0xbbffe7da	-0.0078096213
16	0xbd804dca	-0.06264837
17	0x3daacd91	0.0833999
18	0x3db1d070	0.086823344
19	0xbe8876a4	-0.26653016
20	0x3c7ed485	0.015553598
21	0xbe036183	-0.12830167
22	0xbe61ccf9	-0.22050847
23	0xbe44162b	-0.19149081
24	0xbe8e2625	-0.27763477
25	0xbe27fc5c	-0.16404861
26	0xbeba3e75	-0.36375776
27	0x3d5e02c6	0.054201864
28	0xbdbfcdf6	-0.09365456
29	0xbec62d8a	-0.3870662
30	0x3e40231a	0.1876339
31	0x3ebaaf57	0.364619
32	0xbe07cd97	-0.1326202
33	0xbd386329	-0.04501644
34	0xbd3c2066	-0.045929335
35	0xbf579993	-0.8421871
36	0x3ccfc613	0.025363004
37	0xbd247acb	-0.040156167
38	0xbca51a66	-0.02015419
39	0xbde4ee7d	-0.111783005
40	0x3e8d3cfd	0.27585593
41	0x3c8abd97	0.016936107
42	0x3d8fc9b8	0.07020897
43	0xbcf9a8a4	-0.030475922
44	0xbf79076a	-0.9727694
45	0x3f5495cd	0.8304108
46	0xbd5e03ba	-0.054202773
47	0x3f315480	0.6926956
48	0x3e2e9524	0.1704908
49	0x3ec421b0	0.38306952
50	0x3e01e08b	0.12683313
51	0x3f377375	0.7166055
52	0xbda34c38	-0.07973522
53	0x3ef30681	0.474659
54	0xbb489860	-0.00306084
55	0x3e4a1bd7	0.19737183
56	0x3d54af64	0.051925078
57	0x3e40c026	0.18823299
58	0x3e8cf702	0.27532202
59	0xba5322e5	-0.0008054211
60	0xbe7b83d1	-0.24562003
61	0x3e0e9e7a	0.13927642
62	0xbcd4f822	-0.025997225
63	0xbeb22d8d	-0.34800377
64	0x3e6e7185	0.23285492
65	0xbea41675	-0.32048383
66	0xbd2cba24	-0.042169705
67	0x3d358bde	0.04432284
68	0x3e36a4ae	0.17836258
69	0xbe27b8aa	-0.16379037
70	0x3e1a1795	0.15048058
71	0xbf10ba42	-0.56534207
72	0x3e9fa143	0.3117772
73	0xbe4ad693	-0.19808416
74	0x3eca720c	0.39540136
75	0xbde2307e	-0.110444054
76	0x3ec95462	0.3932219
77	0xbc8a87c4	-0.016910441
78	0x3e3ba71e	0.18325469
79	0xbe76e046	-0.24108991
80	0x3ee1e9a6	0.44123572
81	0xbf228d4b	-0.63496846
82	0x3e1898f6	0.149021
83	0xbf220cbc	-0.6330068
84	0x3e847794	0.2587248
85	0x3eed1a3e	0.46309084
86	0x3e86dd63	0.2634078
87	0xbf07b294	-0.53006864
88	0xbe31bf10	-0.17358041
89	0xbf24d85b	-0.6439263
90	0xbed2406d	-0.41064778
91	0xbe926362	-0.28591448
92	0xbeb98038	-0.36230636
93	0x3d906868	0.07051164
94	0xbe40133e	-0.1875734
95	0xbe277668	-0.16353762
96	0xbf09ddf8	-0.5385432
97	0xbe0eaadc	-0.13932365
98	0xbe7b2e58	-0.24529397
99	0xbf1975b1	-0.5994521
100	0x3dd8570a	0.105634764
101	0xbe959ae6	-0.2921974
102	0x3ce0b715	0.02743105
103	0x3cd30096	0.025757115
104	0xbbce2460	-0.0062909573
105	0xbea5bf90	-0.32372713
106	0x3dfc9fac	0.123351425
107	0xbe644597	-0.22292171
108	0xbf159e08	-0.5844426
109	0x3ce555c6	0.027995002
110	0xbf1d1b37	-0.6136965
111	0x3d9397b3	0.07206669
112	0x3e3de88d	0.18545742
113	0xbd25ae71	-0.040449563
114	0xbf16a094	-0.5883877
115	0xbd14a27a	-0.036287762
116	0xbf20b8ca	-0.62781966
117	0x3ebd4c25	0.36972156
118	0xbdc68ad6	-0.096944496
119	0x3e2bcbc3	0.16776948
120	0xbcab8e51	-0.020941885
121	0x3ebe9aac	0.3722738
122	0xbdb05f66	-0.08611946
123	0x3e9921a7	0.29908487
124	0xbca8871d	-0.02057224
125	0x3ecc6058	0.39917254
126	0xbd4153a3	-0.047198903
127	0xbd4ee8e4	-0.05051507
128	0xbe95fd04	-0.29294598
129	0xbdb6cc0b	-0.08925637
130	0x3e7bdbd6	0.2459558
131	0xbd92e03e	-0.07171677
132	0xbe8a5a57	-0.2702205
133	0x3c06e7fa	0.008234018
134	0xbdac447e	-0.08411501
135	0xbf3b6748	-0.7320447
136	0x3e201996	0.1563476
137	0xbee78ee3	-0.452262
138	0xbe4d6a75	-0.20060141
139	0x3e5bcfbf	0.21465968
140	0x3e38755b	0.18013518
141	0xbf1624db	-0.58649987
142	0x3d1242c4	0.035708204
143	0xbef98223	-0.487321
144	0x3e33407b	0.17505066
145	0xbd80de6f	-0.06292426
146	0x3df42eca	0.11922987
147	0xbd258bb9	-0.040416453
148	0x3e27c3c8	0.16383278
149	0x3dda14e2	0.10648514
150	0x3d2190a2	0.039444573
151	0xbd9697cb	-0.07353171
152	0xbe4586bf	-0.19289683
153	0x3ed34d54	0.41269934
154	0xbde48113	-0.111574315
155	0x3ec88c6a	0.39169627
156	0x3e26e2ce	0.16297457
157	0x3e057773	0.13033848
158	0x3ed431f8	0.41444373
159	0xbec6d8e4	-0.3883735
160	0xbf20bcd7	-0.62788147
161	0xbd532022	-0.051544316
162	0xbd6b911c	-0.057511434
163	0x3dc3616d	0.09540067
164	0x3eddfc2c	0.43356454
165	0xbda2fb74	-0.07958117
166	0xbdf85e72	-0.12127389
167	0xbe8dc424	-0.27688706
168	0x3d099439	0.03358862
169	0x3da7d1c6	0.08194308
170	0x3e155e7e	0.14586827
171	0x3d0c495c	0.03424965
172	0x3dcee3ff	0.101020806
173	0xbcab297c	-0.020893805
174	0x3dc1bcf1	0.09459866
175	0xbcc9b66a	-0.024623115
176	0x3d2053e9	0.039142523
177	0x3b28281d	0.0025658675
178	0xbd2c1a7c	-0.042017445
179	0xbdeab8de	-0.11461042
180	0x3da98b87	0.08278566
181	0x3e9374f0	0.28800154
182	0xbd80f786	-0.06297211
183	0x3e8dd523	0.27701673
184	0xbda7fb11	-0.08202184
185	0xbd144b37	-0.036204543
186	0x3c1314d9	0.008977138
187	0x3e0a86f3	0.13528042
188	0xbd3af60b	-0.0456448
189	0xbdf1611f	-0.117861025
190	0x3c0eef42	0.008724036
191	0xbe0e8f76	-0.13921914
192	0xbce34781	-0.027744057
193	0x3e72a8df	0.23697232
194	0x3cd87f66	0.026427936
195	0xbc23dca6	-0.010001337
196	0xbc4302b3	-0.011902499
197	0xbbe26e2d	-0.0069101066
198	0xbd267cdb	-0.040646415
199	0xbd5bb7f0	-0.053642213
200	0x3e2bddb6	0.16783795
201	0x3d233e44	0.039854303
202	0x3da879f3	0.08226385
203	0xbdb2d4a1	-0.08731962
204	0xbd290b62	-0.04127062
205	0x3cf87d35	0.03033314
206	0xbd7baebb	-0.061445933
207	0x3cce0dda	0.02515309
208	0x3e85d60f	0.26139876
209	0xbe0e4d05	-0.13896568
210	0x3df4e822	0.11958338
211	0xbec2d2f2	-0.38051564
212	0x3cf864fe	0.030321594
213	0x3daa7a67	0.08324128
214	0x3e3d8949	0.18509401
215	0xbd669606	-0.056295417
216	0xbd38463d	-0.04498886
217	0xbe858b08	-0.26082635
218	0x3e74eb62	0.23917916
219	0x3e390b49	0.18070711
220	0x3ee05ab6	0.43819207
221	0x3ea4394f	0.32074973
222	0xbe4adab4	-0.19809991
223	0xbeac3115	-0.33631197
224	0xbddc80ee	-0.10766779
225	0xbbfc06d6	-0.0076912446
226	0x3d4f5207	0.050615337
227	0x3dfea43f	0.12433671
228	0x3e1b6fdc	0.1517939
229	0xbedab2c5	-0.42714515
230	0xbd1a3191	-0.037644926
231	0x3daec0b4	0.08532849
232	0x3e1232dd	0.14277215
233	0xbdbf3172	-0.09335603
234	0xbd8992ce	-0.06717454
235	0x3ad4f090	0.001624601
236	0x3e2656a2	0.16243985
237	0xbc1522e1	-0.009102554
238	0xbee93788	-0.4555018
239	0xbe813961	-0.2523909
240	0x3c1583ce	0.009125663
241	0x3dc50c0b	0.09621438
242	0x3cd4ed2d	0.025992
243	0x3dacb369	0.08432657
244	0x3e84cd70	0.25937986
245	0xbe2376d6	-0.15963301
246	0xbd0884c3	-0.033329736
247	0xbe26a508	-0.16273892
248	0x3dd79137	0.105257444
249	0xbc451f3f	-0.012031375
250	0x3d763b03	0.06011487
251	0xbdf4d52e	-0.11954723
252	0x3d942eb6	0.07235472
253	0x3e627c38	0.22117698
254	0x3d6454d4	0.05574496
255	0x3d351184	0.044206157

encoder.3.bias f4 [8]
0	0x3e826dac	0.25474298
1	0x3c0efdc7	0.008727497
2	0x3ed30c87	0.41220495
3	0x3e9d6d2d	0.30747357
4	0x3ecdfa4d	0.40230027
5	0x3cd40372	0.02588055
6	0xbda712e7	-0.08157902
7	0xaa95f1a0	-2.6635378e-13

decoder.0.weight f4 [8, 16, 3, 3]
0	0x3c5fefe1	0.013668031
1	0x3e0c75d0	0.13716817
2	0x3e50f1a5	0.2040468
3	0x3dcf233b	0.101141416
4	0x3f56e323	0.83940333
5	0x3cf9ba93	0.030484473
6	0xbe25ad29	-0.16179337
7	0x3e71a473	0.23597889
8	0x3e1e59c0	0.15463924
9	0x3d114249	0.035463605
10	0xbe867639	-0.26262072
11	0xbe964503	-0.29349527
12	0xbc089518	-0.008336328
13	0x3f10f0c5	0.56617385
14	0xbac3e3cb	-0.0014945207
15	0xbeb510ae	-0.35364288
16	0x3d5a8c2c	0.053356335
17	0x3e669a7c	0.22519869
18	0xbeae6d04	-0.34067547
19	0x3e5e27f2	0.21694925
20	0xbea6eb61	-0.32601455
21	0xbe3e870c	-0.18606204
22	0x3f07c605	0.5303653
23	0xbd878ac6	-0.06618266
24	0x3ef07ec4	0.46971714
25	0xbdc934b1	-0.09824503
26	0x3efa5ac7	0.48897383
27	0xbd334e35	-0.043775756
28	0xbdde24ff	-0.108469
29	0x3d3d16c8	0.046164304
30	0xbe3c98e2	-0.18417695
31	0x3f37bee3	0.71775645
32	0xbc0e52bd	-0.0086867185
33	0x3e2a8a8a	0.16654411
34	0x3a4f4fbe	0.0007908306
35	0x3dbdebaa	0.09273465
36	0xbded77ac	-0.11595091
37	0x3e11aebf	0.14226817
38	0xbd20ce98	-0.039259523
39	0xbd00a1a6	-0.03140416
40	0x3f5343fb	0.82525605
41	0xbe27a5e7	-0.1637188
42	0x3e6f13aa	0.23347345
43	0xbe839437	-0.25699016
44	0x3e54b63b	0.2077264
45	0x3eb3c45e	0.35110754
46	0xbd11d5e9	-0.03560439
47	0xbe42f751	-0.19039656
48	0xbb1a81ea	-0.002357597
49	0xb9a598ca	-0.0003158509
50	0xbc163d7c	-0.009169932
51	0x3ebeff98	0.37304378
52	0x3e309ed1	0.17248084
53	0x3e6d3a0a	0.23166671
54	0xbe323b6b	-0.17405479
55	0xbd33d16c	-0.043900892
56	0xbe8b3902	-0.2719193
57	0x3d167e70	0.036741674
58	0xbd13e3c2	-0.03610588
59	0x3e3aa775	0.18227942
60	0x3e5b4e58	0.21416605
61	0xbba706bc	-0.0050972383
62	0x3db0d7d7	0.08634918
63	0xbf607ddc	-0.87692046
64	0x3c009d92	0.007850068
65	0x3c684abb	0.014177973
66	0xbe41c9e9	-0.18924679
67	0x3eed8848	0.46393037
68	0xbc1e5a7f	-0.009665131
69	0x3eaa2928	0.33234525
70	0x3cf2c094	0.029632844
71	0x3ecbfc6d	0.39841023
72	0xbece509d	-0.40295878
73	0xbd9bd854	-0.07609621
74	0x3eb95e81	0.36204913
75	0x8000f1d2	-8.6749e-41
76	0xbc8c5282	-0.017129187
77	0x800821f4	-7.46864e-40
78	0xbea68bfb	-0.32528672
79	0x3cf1b005	0.029502878
80	0xbe1935a5	-0.1496187
81	0xbe9bf634	-0.30461276
82	0x3d72cbb4	0.059276298
83	0xbd4119c8	-0.047143728
84	0x3e8347c4	0.2564069
85	0x3ef417a3	0.47674283
86	0x3de41af0	0.111379504
87	0x3e324ab0	0.17411304
88	0x3ca6fe66	0.020384979
89	0x3da2742a	0.07932313
90	0x3dc3f1d6	0.09567611
91	0x3deba006	0.115051314
92	0x3e891bf2	0.26779133
93	0x3d952b03	0.072835945
94	0x3f16d07b	0.58911866
95	0xbcaf022f	-0.021363346
96	0xb859c38e	-5.1918956e-05
97	0x3dd659c0	0.10466337
98	0x3db00382	0.08594419
99	0x3e14adc8	0.14519417
100	0x3e47c604	0.1950913
101	0x3e00eaf9	0.12589635
102	0x3d013243	0.031542074
103	0xbee4d06a	-0.44690257
104	0xbeeb9787	-0.46014044
105	0x3d817ace	0.06322251
106	0x3e3da063	0.18518214
107	0x3d198f5b	0.03749023
108	0xbd9a9d71	-0.07549561
109	0x3d3fd08e	0.046829753
110	0xbe88f60b	-0.26750216
111	0x3db69de0	0.08916831
112	0x3f6fdeba	0.9369923
113	0x3dc9c875	0.09852687
114	0xbf284e56	-0.6574453
115	0xbd9a5cec	-0.07537255
116	0x3d512243	0.051058065
117	0x3df88c78	0.12136167
118	0x0009a7b0	8.86674e-40
119	0xbe110a46	-0.14164075
120	0x3eb8b370	0.360744
121	0x800b1e04	-1.020958e-39
122	0xbe145884	-0.14486891
123	0x3e7a810c	0.2446329
124	0x00073bb2	6.64263e-40
125	0xbd83c748	-0.06434494
126	0x3e8e5246	0.27797145
127	0x3e765677	0.24056421
128	0x3e84ad95	0.25913683
129	0xbd9b5b63	-0.0758579
130	0xbd4a46e5	-0.049384017
131	0x3eb252d2	0.34828812
132	0x3f22b2b0	0.63553905
133	0xb00ac0bd	-5.0478005e-10
134	0x3ebb6219	0.3659828
135	0x3d1a64b5	0.037693698
136	0xbd3a1220	-0.04542744
137	0x3dbbdbe8	0.09172803
138	0x3c068164	0.00820956
139	0x3f6390a3	0.88892573
140	0x3df71aae	0.120656356
141	0x3dbe7f97	0.093016796
142	0xbd6a511f	-0.05720627
143	0x3da8986b	0.082321964
144	0x3dedf147	0.116182856
145	0xbd7e0766	-0.062018774
146	0x3cdfd5ec	0.027323686
147	0xbe28d5db	-0.1648783
148	0xbe4b1c25	-0.19834955
149	0x3dca47c2	0.09876968
150	0x3d002996	0.03128966
151	0xbe1a8b49	-0.15092196
152	0x3e9e9eb8	0.30980468
153	0xbe56d3e8	-0.20979273
154	0xbd901b58	-0.070364654
155	0x3ee5c8fd	0.44879904
156	0xbc9a86e9	-0.018863158
157	0x3d0d78d4	0.03453906
158	0xbc837b4b	-0.016050002
159	0xbd0cd2b5	-0.034380633
160	0x3db165ce	0.08661996
161	0x3edb9162	0.42884356
162	0x3e0e397e	0.13889119
163	0xbd2e237c	-0.04251431
164	0x3caffd9a	0.021483231
165	0xbe8b358c	-0.2718929
166	0xbd90bf30	-0.07067716
167	0xbc8fc410	-0.017549545
168	0xbe485537	-0.19563757
169	0x3cfdd392	0.030984674
170	0x3e994811	0.29937795
171	0x3db6787e	0.08909701
172	0x3d888425	0.066658296
173	0xbe6c26c3	-0.23061661
174	0x3dfad75b	0.12248107
175	0x3b447036	0.002997411
176	0xbe74ea81	-0.23917581
177	0x3ec06529	0.3757718
178	0x3bc29c17	0.0059390175
179	0xbe18c407	-0.14918528
180	0x3e364c9b	0.1780266
181	0xbd84dea1	-0.064877756
182	0xbe8bde2c	-0.2731794
183	0xbbf32add	-0.007420881
184	0xbdc342dc	-0.09534237
185	0x3d29962b	0.041402977
186	0x3ea2b7b8	0.3178079
187	0x3e08e78d	0.1336958
188	0xbd1aab3c	-0.037760958
189	0xbd462d48	-0.048383027
190	0xbe510c9a	-0.20414963
191	0x3e3e81cb	0.186042
192	0xbc30ca61	-0.010790438
193	0xbc7b1bc2	-0.015326442
194	0xbca4d6d6	-0.020121973
195	0xbde395c5	-0.11112551
196	0x3e4b2a8e	0.19840452
197	0xbea0a629	-0.3137677
198	0xbdef131b	-0.11673566
199	0x3ca1651a	0.01970153
200	0xbb25d38f	-0.00253031
201	0xbc5e9337	-0.013584903
202	0xbca36544	-0.019945748
203	0xbd4afe07	-0.049558666
204	0xbe1ead4c	-0.15495795
205	0xbcb7b638	-0.022425756
206	0xbe96be38	-0.29442
207	0x3e5ae1c1	0.21375181
208	0x3d2f04c3	0.04272915
209	0xbeda4661	-0.4263182
210	0x3b014825	0.001972684
211	0x3cc22efe	0.023704048
212	0xbe31a1b6	-0.17346844
213	0x3e496478	0.19667232
214	0xbd24fdcf	-0.040281113
215	0x3bd3c942	0.006463201
216	0xbdefc3fd	-0.11707304
217	0x3d38cc2c	0.04511659
218	0x3d6ed3d0	0.05830747
219	0x8005f31b	-5.46387e-40
220	0x3e10bc0e	0.14134237
221	0x00059723	5.13395e-40
222	0x3f1c7544	0.61116433
223	0xbe543daa	-0.20726648
224	0x3dd8cf44	0.10586408
225	0x3eba9f9d	0.364499
226	0xbd2ed606	-0.042684577
227	0xbe9f0fe6	-0.31066817
228	0x3cd348b9	0.025791513
229	0x3ab164e0	0.0013534091
230	0xbef6134c	-0.48061597
231	0x3ec54c9a	0.38535005
232	0x3dc8abc7	0.09798389
233	0x3e201cba	0.15635958
234	0x3e808bd3	0.25106677
235	0xbe1cdd2b	-0.15318744
236	0xbdaf5879	-0.08561797
237	0xbd86f5f2	-0.06589879
238	0x3d0267c0	0.031837225
239	0xbdd9a570	-0.10627258
240	0x3ee2d57a	0.44303495
241	0xbcb4c5d1	-0.022066982
242	0x3e4deaa4	0.2010904
243	0x3d8b8f3f	0.068144314
244	0xbd9259db	-0.07146045
245	0x3d9b709e	0.075898394
246	0x3e1284f1	0.14308526
247	0x3e2a9292	0.16657475
248	0xbdd1a00a	-0.10235603
249	0xbe795533	-0.24348907
250	0xbdbdcb9b	-0.0926735
251	0xbcee2c44	-0.029073842
252	0xbe68bde0	-0.22728682
253	0xbd8c9f2f	-0.06866299
254	0x3df53b0c	0.11974153
255	0xbdf58f71	-0.1199025

decoder.0.bias f4 [16]
0	0xbe803324	-0.25039017
1	0x3f1a7ec9	0.6034971
2	0x3e30523d	0.17218871
3	0xbdcc0220	-0.09961343
4	0xbcf9be98	-0.03048639
5	0x3e9bc2f3	0.30422172
6	0xbf25fddd	-0.6484049
7	0xbfc16ab0	-1.5110683
8	0xbf65f453	-0.89825934
9	0xbefa26f7	-0.48857853
10	0xbf773322	-0.965624
11	0x3f90b5bb	1.130546
12	0x3d7633f3	0.060108136
13	0xbf6df722	-0.9295522
14	0x3f2e7432	0.6814605
15	0xbf861426	-1.0474899

decoder.2.weight f4 [16, 8, 5, 5]
0	0xbdbd7cc0	-0.0925231
1	0xbe0cae62	-0.13738397
2	0x3d7842c8	0.060610563
3	0x3e294218	0.16529119
4	0x3e2f5a17	0.1712421
5	0xbe8d5b87	-0.27608892
6	0x3dbdd786	0.092696235
7	0x3ee8fcca	0.45505363
8	0x3e8ab36b	0.2709001
9	0xbd82a5a0	-0.06379247
10	0xbe75cf00	-0.24004745
11	0xbc4e3f2a	-0.012588302
12	0x3f29f1b2	0.6638442
13	0xbdc5fc09	-0.096672125
14	0x3cebb0ee	0.02877089
15	0xbe34c3ca	-0.17652813
16	0xbe0a9402	-0.13533023
17	0x3e0b984c	0.13632315
18	0xbdb80e1a	-0.08987065
19	0x3e4d5b7c	0.2005443
20	0xbe1c054d	-0.15236397
21	0xbd0038b2	-0.03130407
22	0xbcb18a6c	-0.02167245
23	0x3cfb44e9	0.030672507
24	0xbc911746	-0.017711293
25	0xbdd80687	-0.1054812
26	0x3e2a0713	0.16604261
27	0xbed6dac7	-0.4196379
28	0x3df03f96	0.11730878
29	0x3c271aea	0.010199288
30	0xbe1ff1c7	-0.15619574
31	0x3bd020ed	0.0063515813
32	0xbd4e08b5	-0.050301272
33	0xbe082d6e	-0.1329858
34	0xbb4b0711	-0.0030979554
35	0x3e7f43d1	0.24928214
36	0xbdfba390	-0.122870564
37	0x3e17cffb	0.14825432
38	0xbe390c16	-0.18071017
39	0xbe06e577	-0.13173471
40	0xbb065d23	-0.002050229
41	0x3ed2c34f	0.41164634
42	0x3e821439	0.25406054
43	0x3a068d1c	0.0005132721
44	0xbcd54e2f	-0.026038257
45	0x3b6938be	0.00355868
46	0x3e3b5e35	0.18297656
47	0xbe210eff	-0.15728377
48	0x3af8dc8b	0.0018986625
49	0xbdce526d	-0.10074315
50	0x3d8b912f	0.06814801
51	0x3e42414d	0.18970223
52	0x3e14f2c2	0.1454573
53	0xbe3b6d0f	-0.18303321
54	0xbc544081	-0.012954832
55	0xbce59a94	-0.02802781
56	0x3e7382a1	0.237803
57	0x3dac7121	0.08420015
58	0xbdfe4f5d	-0.12417481
59	0xbe110663	-0.14162593
60	0x3dce43ee	0.1007155
61	0xbbbd754c	-0.005781805
62	0x3e46b777	0.19405924
63	0xbd2dd229	-0.042436752
64	0xbaf43ad6	-0.0018633257
65	0xbd62e7a6	-0.0553967
66	0xbc22dda2	-0.009940537
67	0x3dcf0470	0.10108268
68	0x3d89c477	0.06726926
69	0x3e09db89	0.13462652
70	0xbd504023	-0.050842416
71	0xbc43acc4	-0.011943046
72	0xbd01bc12	-0.0316735
73	0x3e01a382	0.1266003
74	0xbd3d4f18	-0.046218008
75	0xbe17da5b	-0.1482939
76	0x3e8019df	0.25019738
77	0x3ee5bafd	0.44869223
78	0xbe375d23	-0.17906623
79	0xbbc4666b	-0.0059936545
80	0x3dbc569e	0.091962084
81	0x3eaf9f2d	0.3430113
82	0x3d826c8d	0.06368361
83	0xbcf05e20	-0.029341757
84	0xbe88d7c1	-0.26727107
85	0x3e1564cf	0.14589237
86	0x3ea964df	0.3308477
87	0x3ee8f793	0.45501384
88	0xbdaadbfd	-0.08342741
89	0x3e04020e	0.12891409
90	0x3e6cfe57	0.23143898
91	0x3d38a418	0.045078367
92	0x3d98b330	0.07456052
93	0xbe354722	-0.17702916
94	0x3e2f8fd4	0.1714471
95	0xbcc4ec6b	-0.024038514
96	0xbcb70987	-0.02234341
97	0xbea4704b	-0.32116923
98	0xbe9da3f0	-0.30789137
99	0x3de4d933	0.1117424
100	0xbb576615	-0.0032867242
101	0x3acc6290	0.0015593339
102	0xbec069c1	-0.37580684
103	0xbd9ad864	-0.075608045
104	0x3e4b4d1a	0.1985363
105	0x3df5aa60	0.11995387
106	0x3de5cfe3	0.11221292
107	0xbd85f4fc	-0.06540868
108	0x3e3e1ae9	0.18564953
109	0xbdbe1f7b	-0.09283348
110	0x3c25f0fd	0.010128257
111	0xbe514c56	-0.20439276
112	0xbc248824	-0.010042224
113	0xbe3102c6	-0.17286214
114	0x3dd74502	0.10511209
115	0x3e4519d2	0.19248131
116	0xbd6df31d	-0.05809318
117	0xbebaa2a8	-0.36452222
118	0xbcd90462	-0.026491348
119	0xbe1a1b57	-0.15049492
120	0x3d4d4ba5	0.05012097
121	0xbe0d0fdb	-0.1377558
122	0xbdf635bc	-0.12021968
123	0xbd1f4008	-0.038879424
124	0x3c47d466	0.012196636
125	0xbccf3f16	-0.025298636
126	0x3e42a624	0.1900869
127	0xbe421c9c	-0.18956226
128	0x3e2848d3	0.1643403
129	0xbd0028d6	-0.031288944
130	0x3df53dc0	0.119746685
131	0xbe024bf0	-0.1272428
132	0xbf2f2830	-0.68420696
133	0xbd8c163a	-0.06840177
134	0x3e24622b	0.16053073
135	0x3e363771	0.17794587
136	0xbe730c8c	-0.23735255
137	0xbf404054	-0.75098157
138	0x3e57da80	0.21079445
139	0x3e5aed16	0.21379504
140	0x3bb01031	0.005373024
141	0xbc5c26a0	-0.013436943
142	0xbdcc9435	-0.09989206
143	0x3e11721f	0.1420369
144	0x3e54cae9	0.20780529
145	0x3cb98201	0.022644999
146	0x3d0a1f42	0.033721216
147	0xbe154bd7	-0.14579712
148	0xbdab55e7	-0.08365994
149	0x3e265054	0.1624158
150	0xbe2918ac	-0.16513318
151	0xbc0c4f90	-0.008563891
152	0x3dca1554	0.09867349
153	0x3e74da20	0.23911333
154	0x3d89ed5b	0.06734725
155	0xbdfe13d4	-0.12406126
156	0x3b482756	0.0030541024
157	0x3e19bbdf	0.15013073
158	0x3d74b150	0.05973941
159	0x3bfc3b68	0.0076975115
160	0x3ccb9d01	0.024855139
161	0xbde3439e	-0.11096881
162	0x3e3e5507	0.18587123
163	0xbe44f987	-0.19235812
164	0xbe09eb88	-0.13468754
165	0x3df63e55	0.12023608
166	0x3e96e58f	0.29472014
167	0x3e217a2e	0.15769264
168	0xbda9a2bb	-0.082829915
169	0x3d735dcc	0.059415624
170	0x3d71f87c	0.059074864
171	0x3e0e56f8	0.13900363
172	0xbd97899b	-0.07399293
173	0xbe158a2f	-0.14603494
174	0xbde31ae0	-0.110891104
175	0xbe579294	-0.21052009
176	0x3d9de25d	0.07709191
177	0x3cbe6256	0.02324025
178	0x3d31914d	0.04335146
179	0xbe06a305	-0.13148125
180	0xbd9bce85	-0.0760775
181	0xbd951fff	-0.072814934
182	0x3e12bf13	0.14330702
183	0x3dcb3c54	0.09923616
184	0xbcdbb1fd	-0.02681827
185	0xbd63a68f	-0.055578765
186	0xbdff0253	-0.12451615
187	0x3d1a112d	0.037614036
188	0x3e7c14e8	0.2461735
189	0xbda6a9e0	-0.0813787
190	0xbd891791	-0.06693948
191	0x38a9a36a	8.088986e-05
192	0x3ee78596	0.45219105
193	0x3e55cc0d	0.2087862
194	0xbe63011f	-0.22168396
195	0xbdb95c44	-0.090508014
196	0xbc91f70f	-0.017818002
197	0xbd78aa76	-0.06070944
198	0xbd9cbff8	-0.07653803
199	0x3cb8951d	0.02253204
200	0xbd1213d8	-0.035663456
201	0xbe049c49	-0.12950243
202	0xbd78104a	-0.06056241
203	0x3d42e7d4	0.04758437
204	0x3c62dd3c	0.013846692
205	0xbe3475c9	-0.17623056
206	0x3e8fa10b	0.28052554
207	0x3d82c459	0.063851066
208	0xbbe7fd0c	-0.007079726
209	0x3d63a0ea	0.05557338
210	0x3dbbc1df	0.09167837
211	0x3e6497ef	0.22323583
212	0x3ec733f4	0.38906825
213	0xbd11c2b2	-0.035586067
214	0x3dc711d5	0.09720198
215	0x3c83e933	0.016102409
216	0xbd2e5e65	-0.04257049
217	0x3e5739e9	0.21018185
218	0x3d83fc9c	0.06444666
219	0x3e1526ee	0.14565632
220	0x3e2f24a5	0.17103823
221	0xbeb87b61	-0.3603163
222	0xbda314e7	-0.07962971
223	0xbd9a9f88	-0.075499594
224	0xbe5deae0	-0.21671629
225	0xbe722156	-0.23645529
226	0xbc9bbd54	-0.019011177
227	0x3e70a49a	0.2350029
228	0x3dd0756f	0.10178649
229	0xbe7aa416	-0.24476656
230	0x3e3afe24	0.1826101
231	0x3e41d694	0.18929511
232	0x3d8f5ade	0.069997534
233	0xbd4e236c	-0.05032675
234	0xbd5a9597	-0.053365316
235	0x3e66cdd7	0.22539459
236	0x3d9940be	0.07483052
237	0x3debc4dc	0.11512157
238	0x3dd36f58	0.103239715
239	0xbe59be07	-0.21263896
240	0xbe1e26cb	-0.15444486
241	0xbe6b1b0c	-0.22959536
242	0x3ea4e15d	0.3220319
243	0xbde41baa	-0.11138089
244	0x3d0fa513	0.035069536
245	0xbdeccc67	-0.11562424
246	0xbc7affc8	-0.015319772
247	0x3dcbbf7b	0.099486314
248	0xbd3dc79b	-0.046332937
249	0x3d0d0203	0.034425747
250	0x3e5af2c1	0.21381666
251	0x3d5a0c0b	0.05323414
252	0x3e8c97e2	0.27459627
253	0x3c8178e3	0.015804714
254	0x3d1a3d2b	0.03765599
255	0xbd8e1ae9	-0.069387265

decoder.2.bias f4 [8]
0	0xbebcc10f	-0.36866042
1	0x3f9e2479	1.235488
2	0xbf4d72c1	-0.80253226
3	0x3e58e0ac	0.21179456
4	0xbea26438	-0.31717086
5	0xbed68862	-0.41900927
6	0x3ec8cac0	0.39217186
7	0xbed2e55d	-0.41190615

decoder.4.weight f4 [8, 1, 2, 2]
0	0xbf831118	-1.0239592
1	0xbfa27232	-1.26911
2	0xbf690466	-0.91022336
3	0xbf80a63a	-1.0050728
4	0x3f4897bc	0.7835653
5	0x3f53a4aa	0.8267313
6	0x3f95d449	1.1705409
7	0x3f92977d	1.145248
8	0xbfa96ba8	-1.3235979
9	0xbfb56c6b	-1.4173712
10	0xbf8a31f3	-1.0796493
11	0xbf90e454	-1.131968
12	0x3f7acb4c	0.97966456
13	0x3f63e933	0.8902771
14	0x3f9abb5a	1.2088425
15	0x3f85d10b	1.045442
16	0xbfc4aa4d	-1.5364472
17	0xbf0f165e	-0.55893505
18	0xbfb5956a	-1.4186223
19	0xbee1739c	-0.44033515
20	0xbfb2f1fe	-1.39801
21	0xbf2f411c	-0.68458724
22	0xbfb07303	-1.3785099
23	0xbf1f9b62	-0.6234647
24	0x3ee1cee1	0.4410315
25	0x3eadafc6	0.33923167
26	0xbf480b8c	-0.7814262
27	0xbf6e841a	-0.9317032
28	0xbf391cda	-0.7230965
29	0xbf98728f	-1.190996
30	0xbf17132c	-0.5901363
31	0xbf862788	-1.0480814
